model/model.pth (torch, 16799 bytes, 4 tensors)

linear1.weight f4 [256, 11]
00000000: 6182 e73e 0a3a 083f 0d2a d8bd 8bd5 85be
00000010: 55d3 563e 91d5 093d e675 2ebe 7185 8a3e
00000020: 7095 61be 2a2e 3b3e 7aed 84bd 7c0b 553e
00000030: 2873 bf3c 387f 2b3e 0efb b0bb c607 253e
00000040: ed72 0abf cc4b b13e 7827 a03e f063 14be
00000050: 7a9d 113f 2d09 99be c37e 4f3e 95c8 fcbe
00000060: 2402 4bbd 970e b6be 0d04 133e 1c3b b0bd
00000070: 2e9b fbbe 851d c13d 3d6f 60be 5744 a4be
00000080: 2f3a b13e d1aa e93d a51e bb3d 9486 0fbf
00000090: 682e 963d d51c 27be 37a6 01be 0595 aabe
000000a0: e12b 67be 57fc a8bc bf83 93bd fa1a 373e
000000b0: 6272 0abc c696 e2be f48e 03be 2fc8 403d
000000c0: 9a96 a5bb b486 b63e 921c e2be 81b6 34be
000000d0: be49 01be 1774 fdbe 73ce 983e 64ad 9c3e
000000e0: 250f 55be 7098 3abd 8c8c 36bf 2436 00bf
000000f0: 57bf 963e 7de2 2e3e 80e6 ea3e f7a9 7c3e
00000100: 8751 2dbf 601f c9be 64de 91be b48b dc3e
00000110: dfd7 8cbc e744 97be b75e 4c3e 62df 9bbd
00000120: 7d65 5d3e 7016 0ebf bc10 cbbc a5db 823e
00000130: 0e5f 0b3e 4388 be3d 69cc 643d 2eac a2bb
00000140: 4aba f63c e325 83be 3504 143c 4517 8ebe
00000150: e46a 6e3c fa4f 20bc 7c61 2abe 3204 6d3e
00000160: 4163 693e 55a3 003d 6407 003f d30f f33d
00000170: 675b 45be 31e6 71b9 8675 7bbe a8b5 053e
00000180: 7fe0 f23e cd69 a53e d602 e03e 2040 2c3e
00000190: fec4 4dbe a2cc 1b3f 1bc1 793e f26f 05be
000001a0: 2146 4fbf ebb9 a83c cd28 983e 0f8f b43b
000001b0: 6a7f 85be f858 08bf 7925 9ebd 301d 0bbe
000001c0: f706 4c3e 07bd aebd fcd0 35be 6111 91be
000001d0: a7ed 47be 01eb 343e e992 a63e 85a4 303e
000001e0: 8030 0d3e ea29 83bd 8925 813e 10df fabe
000001f0: e355 ccbe 1abc 0f3e cb4c 7ebd 1b6c 0abe
00000200: 0567 813e 700e d1be 4031 9bbe 9a2c 0f3d
00000210: 9150 35bd c600 6c3d 09d8 f93e 0c99 b2be
00000220: 05d6 72bd 940b 413e 60b1 9fbe 0b36 d6be
00000230: ee16 11bb bb7d 62be 0405 6d3e baf5 b63c
00000240: 65c3 b53e 86d1 ab3e fbd3 97be 2561 13bf
00000250: 0da9 bebe c5d9 5abd f895 32bc 9feb 9cbc
00000260: d5e1 2c3e 1ac1 70bd f4a6 87bc d720 4abf
00000270: e13a 5e3d bb8a 8f3e 4775 cc3c 23bb 9e3d
00000280: 6b0f edbe fe94 a7bd 2921 563e 4baa 0e3e
00000290: 37b4 3e3f 7b65 75be b40d 753d 0066 d9bc
000002a0: e443 cc3d 6244 5ebe e00f b13d 384b 2d3e
000002b0: 8240 87be c1ee 32be 9604 61bd 988b 3bbe
000002c0: 8ec4 7abe c296 75be 23b9 de3d 9775 42be
000002d0: f830 95be 95cd d0bd 6285 3bbe ad9e 17be
000002e0: 8882 0c3e 7db2 bebd 450c c73d 4e12 cc3d
000002f0: 1a6d 5b3d 78d4 bdbc 4f6d 64be 1795 a63e
00000300: b511 ddbe 6db4 a63b 8192 de3e 29b1 21be
00000310: 39de 1d3f 66b8 873e 26a1 003e a058 333f
00000320: 588b bf3b 8a1b 6ebe 3faa 633e 7be7 8d3e
00000330: 5367 65bd 42b6 dcbb cea4 c9be 85d4 c7be
00000340: 176b 99be 3aa6 9abe 3863 ac3d 36f9 95be
00000350: 8d16 81bd 21f9 6fbd 07a9 6dbe b89f 413d
00000360: fe72 bcbe 7354 dbbd 094f 453e b195 04bf
00000370: 94f2 95be cb06 d9bd a5f3 8fbe 4a3f 66be
00000380: 6d39 71bd 79f6 8fbe dd71 b8bd e012 50bd
00000390: 8692 703e 3995 31be 77b9 f93a d576 963e
000003a0: e5fc 2fbe 3bce 3f3d 9b51 8f3d fb60 b83e
000003b0: e853 3cbe 3158 dcbe b537 afbe 9564 fdbe
000003c0: 9bbf bb3d 587f 613e 97db 7fbd df2d c23b
000003d0: 1ea6 0d3e 96d1 65be 343c 2c3d dbc6 07bd
000003e0: 16f1 9c3c fda9 973e 0f6e 433e 5e0e 5a3e
000003f0: 6666 8d3e 5ac3 a5be f7f1 033d 70d8 aabd
0.4521666 0.5321356 -0.105548956 -0.26139483 0.20979054 0.03365094 -0.17037162 0.27054933
-0.22029662 0.18279329 -0.064906076 0.20805162 0.02337034 0.16747749 -0.005401022 0.16116247
-0.5408161 0.3462814 0.31280112 -0.14491248 0.56880915 -0.29889813 0.202632 -0.49371782
-0.04956259 -0.35558006 0.14357014 -0.08605024 -0.4914183 0.094294585 -0.21917434 -0.3208339
0.34614703 0.11409534 0.09136704 -0.56064725 0.0733307 -0.16319592 -0.12661062 -0.33316818
-0.22575332 -0.020628138 -0.07202863 0.17881384 -0.008450123 -0.44255656 -0.12847501 0.04706591
-0.0050533535 0.35649645 -0.44162422 -0.17647745 -0.12625787 -0.49502632 0.29845008 0.30601037
-0.20806558 -0.045555532 -0.7130821 -0.5008261 0.29442856 0.17078586 0.45878983 0.24674211
-0.67702526 -0.3928175 -0.28489983 0.43075335 -0.01719278 -0.29544756 0.19958006 -0.07610966
0.21620746 -0.55502987 -0.024788253 0.255582 0.13610479 0.093033336 0.055859003 -0.004964373
0.030118126 -0.25614843 0.009034206 -0.27752128 0.014551852 -0.009784693 -0.1663875 0.23146132
0.22791769 0.031405766 0.5001128 0.118682526 -0.19273148 -0.00023069304 -0.2455655 0.13057578
0.47436902 0.32307282 0.43752164 0.16821337 -0.20094678 0.6085912 0.2439007 -0.13030985
-0.80966383 0.020596465 0.2971863 0.005510218 -0.26073772 -0.53260756 -0.07721991 -0.13585353
0.19924532 -0.08532148 -0.17755502 -0.28333572 -0.19524251 0.17667772 0.3253396 0.17250259
0.13788033 -0.06404479 0.2522395 -0.48998308 -0.39909276 0.14036599 -0.062084954 -0.13517801
0.2527391 -0.40831327 -0.30311012 0.034954645 -0.044266287 0.057617925 0.48797634 -0.3488239
-0.059286136 0.18852073 -0.31190014 -0.41838107 -0.0022138911 -0.22118275 0.23146445 0.022333968
0.35500637 0.3355829 -0.29653916 -0.57570106 -0.3723835 -0.053430337 -0.010900013 -0.019155322
0.16883023 -0.058777906 -0.016559102 -0.7895636 0.05425537 0.2803553 0.024958266 0.07750537
-0.46300825 -0.08182715 0.20911087 0.13932149 0.74493736 -0.23964493 0.05982752 -0.026537895
0.099738866 -0.21705773 0.08645606 0.16923225 -0.26416403 -0.1747389 -0.054936014 -0.1831497
-0.24489042 -0.23983291 0.10875156 -0.1899017 -0.29138923 -0.10195462 -0.183126 -0.14806624
0.13721669 -0.09311388 0.09719137 0.09964429 0.053570844 -0.023172602 -0.22307323 0.32535622
-0.43177572 0.0050874264 0.4347115 -0.15790237 0.6166721 0.26507872 0.12561473 0.70057106
0.0058454685 -0.23252693 0.22232912 0.27715668 -0.05600674 -0.006735594 -0.39383548 -0.39029327
-0.29964516 -0.30204946 0.08417362 -0.29291695 -0.06303129 -0.058587197 -0.2320901 0.04727146
-0.36806482 -0.10709467 0.19268431 -0.5179091 -0.29286635 -0.10596999 -0.28115574 -0.2248508
-0.058892656 -0.2811773 -0.09006093 -0.05079925 0.23493394 -0.1734208 0.0019052465 0.29387537
-0.17186315 0.046827536 0.06997987 0.3601149 -0.18391383 -0.43036035 -0.3422219 -0.494908
0.09167405 0.22021234 -0.062465277 0.0059258784 0.138329 -0.22443232 0.0420496 -0.033148628
0.019157927 0.29621878 0.19084953 0.21294543 0.27617186 -0.32375604 0.032213178 -0.083420634

linear1.bias f4 [256]
00000000: 8a60 10be 492d 65be 3837 793d d48e 99be
00000010: c84e d23d 71c4 613e e52e a73e 6eee 8ebe
00000020: 5534 99be d070 2ebe b89b dcbd 6375 72be
00000030: c20e 2d3e 216c afbc a897 89be 309a 3fbe
00000040: 134e 8dbe 50ef 7bbe db6d b13c 7ba9 9abe
00000050: 6060 38be 6159 b03d 72e4 9bbe 053a e7bc
00000060: 3cb6 633e ae0c cf3e 49ae a03b 3d2c 9e3e
00000070: 1213 67be 7e87 89bd 7d48 b63d 1ae8 a2bd
00000080: 8e92 95be ff83 e1bd 6654 85be cd7c 953e
00000090: 1abf a13e 5994 70be 3a35 84bd babf 703e
000000a0: bf23 74be eb47 7cbe fe78 b2be 101c 87be
000000b0: c94e 123e e019 39be ffe1 fe3e 656e f5bd
000000c0: 446e 87be 92b2 bfbe 0ca5 36be a63f 8ebe
000000d0: a1e4 c93c 22da 33be ec01 babe eea4 d6be
000000e0: c054 97bc 7cf7 25bd 5177 d9bd 58ec d4be
000000f0: 33b4 c3be 58e1 ca3e dab9 ebbd 67e8 83be
00000100: ad11 48bd 21f8 95bb 54ba 1d3e ce3a 953d
00000110: 7401 65be 6e23 3abd a502 fdbd b47e 3fbe
00000120: 1774 7ebd e7d3 9ebe cbf4 fcbd 93ae 68be
00000130: 5e88 c33e 9668 90be 2302 c53e c0e0 8cbe
00000140: 3906 a8bd b78e d1be f445 42be 797a c23e
00000150: 7362 3fbe 74d0 babe aa6d 5dbe fbc9 143d
00000160: ddbd edbe f9a2 71be 6958 0dbe 1833 70be
00000170: c17a 043e ae26 1cbe fafd 0cbf 1aa0 d3bb
00000180: 03ad 86be c595 77bd a020 b1be 4896 14be
00000190: e500 083f a84d 29be 3955 aabe 24a6 073e
000001a0: 2c03 bb3e f5d0 2ebe 4420 2d3e d896 6dbe
000001b0: 78d0 8c3e 9d34 303e 6f51 b4be 58b9 013d
000001c0: 3702 963d faf4 13be d150 8dbe 9538 e0bd
000001d0: dffd 923d 4c72 073e 2a32 2ebe f144 4dbd
000001e0: 1e61 a43e 32ec 50be 584b e03d 15b4 9ebe
000001f0: b941 10be 7883 98bd bbc6 2dbe b70a 6fbe
00000200: f6b2 70be 6c0a 95bd 11d3 363e f5ff 90be
00000210: c505 323e 6d90 f8be 4ade d03d 124e d7be
00000220: 6639 8ebe d1fb 39be 1178 f3bd 098e c63d
00000230: bbf6 59be 2b1b 25be 825b 7ebe eced b5be
00000240: ce05 33be 1c4c b8be 8821 64bd e7b5 efbd
00000250: 4c33 f8bd 16ad 0dbe 29c0 80bd 00a8 d9bc
00000260: fe75 37be 52c4 59be 230d 9c3e 7f62 0dbe
00000270: d7ff debc 51bc 93be a503 83be 2495 5fbe
00000280: 2f77 693d 6488 0dbe 564e 78be 473d ecbd
00000290: 3d58 97be 111e b63d 3b06 eb3e bbd0 e6be
000002a0: 9d38 3a3f c6f2 8dbe d01e db3c 67ad a6be
000002b0: 7c3a 123f 7c4e efbe 96b8 bbbd 6699 d9bd
000002c0: e4d8 3cbe 77f8 c1be dc6a b73d 2b9a 89be
000002d0: 8aff 8ebe a92e acbd 152c 97be f752 34be
000002e0: 6068 85be 48af 7dbe 68b8 26be 5734 99bd
000002f0: 570b 0cbe 930b 24bd 8107 513d 4336 2a3e
00000300: c48c 48be 980b 2dbe eff1 22be 047f bd3d
00000310: d27e 64be 73fa a6be ea6d aebe 467c 19be
00000320: c9b9 35be 3f01 133f ad0c a0be d6f3 acbe
00000330: fa69 c63e 5e18 faba ea67 2b3e 1f5a 68bd
00000340: 0551 f1be 9117 273e cbbc 2f3f 982f 77be
00000350: 6807 f23e 1c35 6abe af98 cb3e ef3a 1f3e
00000360: cea5 a8be 182a b5bc 40dc 9bbd 1e3d 85bd
00000370: f400 16be 4a96 31bd 8874 cd3e a553 823e
00000380: 0bb4 a6be dbe3 51be ecf4 0fbe 98d3 97be
00000390: 60b7 8ebe 258f 40be 9f35 03be 85d5 b2be
000003a0: 5dc3 fb3d df68 c03d 3bf7 003f ff29 783e
000003b0: a960 14be 8149 1cbe 2c11 7dbe 7cf7 d53d
000003c0: 9f73 73bc dc61 463e 5cd1 7ebe 21c8 2ebe
000003d0: f886 f2bd 684a 8d3d b03e c63e ab70 6bbe
000003e0: 5eb0 363f d661 85be 8756 183d 7097 d5bd
000003f0: 4773 853e b5af 07be 3fa1 a1be f3ca b9bd
-0.14099327 -0.22380556 0.060843676 -0.29991782 0.102689326 0.22047593 0.32652965 -0.27916282
-0.2992274 -0.17035222 -0.107718885 -0.23677592 0.16900161 -0.021413865 -0.26873517 -0.18711162
-0.27598628 -0.24603009 0.021658828 -0.30207428 -0.18005514 0.08610798 -0.30447727 -0.028225908
0.22237486 0.4043936 0.004903589 0.30893126 -0.22565868 -0.06715296 0.08900545 -0.07954426
-0.29213375 -0.110115044 -0.26040953 0.29196778 0.3159111 -0.2349409 -0.06455465 0.23510638
-0.23841761 -0.2463681 -0.34857935 -0.26388597 0.14287867 -0.18076277 0.49781796 -0.11983947
-0.26451313 -0.37440926 -0.17836398 -0.27782935 0.024645152 -0.1756368 -0.3632959 -0.41922706
-0.01847303 -0.040519223 -0.10618461 -0.41586566 -0.3822342 0.3962505 -0.11510058 -0.25763246
-0.048844982 -0.0045766984 0.1540311 0.07286607 -0.22363836 -0.045443945 -0.1235402 -0.18700677
-0.06212243 -0.31021044 -0.12351378 -0.22722845 0.38189977 -0.28204793 0.38478193 -0.2751522
-0.08204312 -0.40929195 -0.18971997 0.37984064 -0.18689899 -0.36487162 -0.21623865 0.036325436
-0.46433917 -0.23597325 -0.13803257 -0.2345699 0.12937452 -0.1524913 -0.5507504 -0.0064582946
-0.26303872 -0.060445566 -0.34595203 -0.14510453 0.53126365 -0.1653353 -0.33268145 0.13246971
0.36525857 -0.17071898 0.1690684 -0.23202074 0.275028 0.1720757 -0.3521838 0.0316709
0.07324641 -0.1444892 -0.2760072 -0.10948292 0.07177328 0.13227195 -0.17011324 -0.050114576
0.32105345 -0.20402601 0.10951871 -0.30996767 -0.14087571 -0.07446951 -0.16970341 -0.23343931
-0.23505768 -0.072773784 0.17853953 -0.2832028 0.17385013 -0.48547688 0.10198648 -0.4205175
-0.27778167 -0.18162467 -0.11888135 0.0969506 -0.21285526 -0.16123645 -0.24839595 -0.35533082
-0.17482683 -0.35995567 -0.05569604 -0.11704617 -0.12119159 -0.13835558 -0.06286652 -0.026569366
-0.17916104 -0.21266297 0.30478773 -0.13807105 -0.027221603 -0.28854612 -0.25588718 -0.21834236
0.056998428 -0.1382156 -0.24248633 -0.11535125 -0.29559508 0.088924535 0.4590319 -0.45081124
0.72742635 -0.27724284 0.026748091 -0.3255417 0.5712049 -0.46739566 -0.09166066 -0.106249616
-0.18442112 -0.37884876 0.08955929 -0.26875433 -0.27929336 -0.08407337 -0.2952582 -0.17609774
-0.26056194 -0.24773896 -0.16281283 -0.07480686 -0.13676201 -0.0400501 0.051032547 0.16622262
-0.19584948 -0.16898954 -0.15912603 0.09252742 -0.22314003 -0.32612953 -0.34068233 -0.14988813
-0.17746653 0.57423776 -0.3125967 -0.33779782 0.3875273 -0.0019080748 0.16738859 -0.05672657
-0.47132125 0.16317584 0.6864745 -0.2413925 0.47271276 -0.22871822 0.39764926 0.15549825
-0.32939 -0.022114798 -0.07610369 -0.06505798 -0.14648801 -0.043356217 0.4012797 0.2545444
-0.32559237 -0.20497076 -0.14058274 -0.2965362 -0.2787428 -0.18804605 -0.12813424 -0.34928527
0.12293122 0.093950026 0.50377244 0.2423477 -0.14489998 -0.15262415 -0.24713582 0.104475945
-0.014859109 0.19373268 -0.24884552 -0.1706853 -0.118421495 0.068989575 0.38719702 -0.22992198
0.71362865 -0.26051205 0.037191894 -0.10429275 0.26064512 -0.1325062 -0.31568334 -0.090719126

linear2.weight f4 [3, 256]
00000000: 17b1 ebbd be77 e0bd 891c 49be 8553 d53c
00000010: 289e 14be 14f5 f7be 265b 813e 16b5 85bd
00000020: 135b 57be d96f 793e 9bb1 07bd 6ad0 96be
00000030: 92e2 173d aae7 123d 162e b0be 83c4 c93d
00000040: b0a2 a0bb 522e 9dbe dae5 96bd c818 e5bd
00000050: cb7f a1bb bfca 6dbe 09a0 84bd c753 3abf
00000060: 3026 063e 0338 973e 03c3 123e 25b6 c23d
00000070: c702 f7bd ff94 04bf 04bb ed3d 419b 82bd
00000080: 6ce0 ba3c 8009 f83e b1f2 fabc 25da 293e
00000090: cc29 043e ac42 5abe 9698 1e3f 2765 403e
000000a0: f088 b03b 91e3 10be 0d98 e8bc 6ada 65bd
000000b0: 7ad4 803e 25b2 b4be 4765 473e d839 90be
000000c0: 0996 2ebe e876 14be 0400 41be 5621 043e
000000d0: 233c dd3c ab39 bbbe e49d a0bd 7d1c 2d3d
000000e0: 2f85 57be 23ab 943c de06 14be 2382 30be
000000f0: bfe5 24be c998 073e 4adf 0d3e 5ce8 5cbd
00000100: f02c 6a3c 6fe0 c13d cdbd 753d ec7d 803d
00000110: 539b 483c 01ca e4bc ee98 b73d 8cdd 0dbd
00000120: 9828 a13c 856a 933c 50cd 8ebe f504 423e
00000130: f5ba d73e bd6c d5bd 87cc bf3e 7fe5 8b3e
00000140: 4ba0 d93b 31a5 0fbf 076e 39bd bdc0 363e
00000150: 89ca 15bc 5106 9fbb 58dd 403d 1ba8 ac3d
00000160: 7873 48be 152f fc3c e311 67bd 6f7e b4bd
00000170: 79a9 a33d 4eab 873e 708a 4bbd 3a83 eb3c
00000180: 2266 57be 67e5 eabe 7b23 84bd 6ca1 fcbe
00000190: 9df8 9a3e 2800 e3be ecac 64be add4 9d3e
000001a0: 2d33 2a3f e091 16bd 5583 7b3d bb89 0f3e
000001b0: 7ba2 0f3e 5e03 0c3f 3c1a 12be d7c7 4e3d
000001c0: fef2 5b3e b1a1 bc3e c2be d7bd dc7c 00be
000001d0: ff8d edbe 1a53 0e3e 40dc 4b3b 79a4 febe
000001e0: 275d 8e3e 593a 9cbc 16f4 863d 0689 97bc
000001f0: eb0a 5dbe 65bb f6bd ae51 343d b96a e3be
00000200: 4720 20be d0d1 6bbe cab2 f43e d258 86bd
00000210: f957 c03e 744b 953c a711 0b3f e311 37bd
00000220: 7943 a33c 0ce0 403e 8584 5a3d 7324 7d3e
00000230: f0fd 17be c363 693e 38d4 0bbe db9f cbbe
00000240: 4ed5 3cbe 830f 8abd 9afe 393d bf39 cabe
00000250: e7cd d03c 586c f13d 1f01 a9be 3ffc 9e3c
00000260: a6b7 babd 609b 3abd c2ab a53e 8b36 65bc
00000270: 98e7 bd3e 9962 78bc 1d94 9dbd e2f6 fdbd
00000280: fbed 9b3e 889c 673d 70a0 3a3d 1f14 3abe
00000290: 7a4a 133c 7bae bf3d 70f2 a63e 3000 20be
000002a0: fe0b f63e 73f3 d0bc 37b4 01bf 8212 5fbd
000002b0: 556e b33e 6bd0 88bd fb8e d5be 1eaa 8dbe
000002c0: 11a4 30bd f25a a9bb daa6 d9bc 57bb 35bb
000002d0: 8dc8 0abd 349d 7c3e 4f78 5d3e 4185 523b
000002e0: f09e edbc 84d8 4a3d 8aef 323d 4148 13bc
000002f0: 9014 ca3c f6cf d33d 67c2 7e3d ddd5 353e
00000300: 761a 04bf 8c89 703b fb4c 02bd a832 fbbe
00000310: a9af e13e 41af 763d 0d6c 013b 6df7 9fbc
00000320: 7352 55be 0179 7d3e a40f cdbc ae42 93bd
00000330: 63d5 9f3e 43a3 fcbd 3d72 923e 7b38 5e3e
00000340: 5423 97bd 9c83 133f 4b00 883e 5d25 cbbe
00000350: 763c 0c3f 8514 e43e e2aa 693d 29f7 a63e
00000360: ab1f c9be 886b b63e 089c 743d 948b 8bbe
00000370: 6925 1e3d 56d9 a53e eb94 f93d 25ab 0c3e
00000380: bc9e 04bd ce2f 0abf dd3c 9dbd 8c34 0bbe
00000390: 5c8e 06bf fca3 c13e 6bf4 4bbf bd16 fdbc
000003a0: 83bf 963e a715 1b3b 163a 033e a293 9c3e
000003b0: d954 12bc d7a3 9cbd ea93 8c3d ffe8 d43e
000003c0: 7718 4fbe 6c99 24be ad1a 9c3b 7e91 f8bd
000003d0: 075b b2bc 17de da3e 5df3 7d3e 9e59 a63b
000003e0: d2cc 913e dee7 03bc 6056 ba3d acc4 803c
000003f0: e1ec bc3e 1f53 a0bd 2942 ac3c 1768 43be
-0.115083866 -0.10960339 -0.19639792 0.026040802 -0.14513457 -0.48429167 0.25264853 -0.0652868
-0.21030836 0.24359073 -0.033128362 -0.29455882 0.03708131 0.035865463 -0.3441016 0.09851935
-0.0049022064 -0.30699402 -0.073680595 -0.11186367 -0.004928564 -0.23221873 -0.06475837 -0.72784084
0.13100505 0.2953492 0.14332204 0.095073976 -0.120610766 -0.5178985 0.11607936 -0.063772686
0.02281209 0.48444748 -0.030633302 0.16587122 0.12906569 -0.21314496 0.6195158 0.18788587
0.005387418 -0.1414931 -0.028392816 -0.0561165 0.25162107 -0.35292163 0.19472228 -0.2816913
-0.17049421 -0.14498484 -0.18847662 0.12903342 0.027006214 -0.36567435 -0.07842615 0.042263497
-0.210469 0.01814801 -0.14455745 -0.17237143 -0.16103266 0.13241877 0.1385471 -0.053932533
0.0142929405 0.094666354 0.05999546 0.06274018 0.012244063 -0.027928354 0.08964716 -0.03463511
0.019672677 0.017995128 -0.27891016 0.18947203 0.42134824 -0.10421131 0.3746073 0.2732353
0.006641423 -0.5611144 -0.045270946 0.17846961 -0.009142526 -0.004853048 0.04708609 0.08430501
-0.19575298 0.03078417 -0.056413542 -0.08813178 0.07991309 0.26497883 -0.04969257 0.028749097
-0.21035054 -0.45878145 -0.0645208 -0.49341905 0.30267802 -0.44336057 -0.2233159 0.3082632
0.6648434 -0.03676021 0.061404545 0.14017384 0.14026825 0.5469264 -0.1426782 0.05048355
0.21479413 0.3684211 -0.10534431 -0.1254763 -0.46397397 0.13898888 0.003110662 -0.49734858
0.27805445 -0.019070791 0.065895244 -0.018497955 -0.21586196 -0.120474614 0.04402321 -0.4441736
-0.15637313 -0.23029256 0.47792655 -0.0655991 0.37567118 0.018224455 0.5432381 -0.044694792
0.019929634 0.18835467 0.053349037 0.24720936 -0.14842963 0.22791962 -0.13655174 -0.39770398
-0.18440744 -0.0674124 0.045408823 -0.39497182 0.025488807 0.11788243 -0.33008668 0.01940739
-0.091170594 -0.045558333 0.32357603 -0.013990055 0.37090755 -0.015160226 -0.07694266 -0.12400605
0.30455002 0.056545764 0.04556316 -0.18171738 0.008989925 0.093594514 0.3260684 -0.15625072
0.48056024 -0.02550671 -0.5066561 -0.05446101 0.35045114 -0.066803776 -0.41710648 -0.27668852
-0.043125216 -0.005168312 -0.026568819 -0.0027730071 -0.033882666 0.24669343 0.21627925 0.0032122883
-0.029006451 0.04952289 0.043685474 -0.008989395 0.024668008 0.103424 0.062197115 0.17757364
-0.51602876 0.0036703078 -0.031811696 -0.49062085 0.4407933 0.06022573 0.0019748241 -0.019527161
-0.20832233 0.2475319 -0.025031872 -0.071904525 0.3121749 -0.12335827 0.28602782 0.21701233
-0.07379785 0.57622695 0.26562724 -0.39676943 0.54779756 0.44546905 0.057047732 0.32610443
-0.39281973 0.35628915 0.059719115 -0.27254927 0.038609896 0.32392377 0.12186607 0.13737161
-0.032377943 -0.53979194 -0.076776244 -0.13594264 -0.52560973 0.37820423 -0.7966983 -0.030894632
0.29442987 0.002366403 0.12815127 0.30581385 -0.008931362 -0.076484375 0.0686415 0.41584012
-0.20224176 -0.16074151 0.004763922 -0.121371254 -0.02177192 0.42747566 0.24799867 0.005076601
0.28476578 -0.008050887 0.09098506 0.01571878 0.36899474 -0.07828354 0.021027641 -0.19082676

linear2.bias f4 [3]
00000000: c653 a43e 1048 0f3e bf58 3a3d
0.32095164 0.13992333 0.04549479
